examples/dlight/simple_convnet.pt (torch_old, 56056 bytes, 10 tensors)

conv1.weight f4 [8, 1, 5, 5]
-0.4095901 -0.39644146 -0.0120921265 0.51914626 0.23203202 -0.42443654 -0.03166444 0.48237443
0.52548254 0.17443016 -0.22972782 0.22248787 0.54476815 0.31289595 0.08171212 0.15077776
0.24511509 0.4250895 -0.13161457 -0.13668913 0.29310924 0.08618545 0.01760558 -0.16922086
0.1464782 -0.14944333 -0.06576813 0.009729914 0.043602455 0.33387744 -0.31141436 -0.2549883
-0.24402054 0.22262317 0.42012164 -0.08356437 -0.09564543 -0.28136957 0.21552317 0.48412046
-0.34073946 -0.24864711 -0.20086698 -0.07506549 0.42612654 -0.22879045 -0.15982053 -0.24407831
0.019743668 0.25538215 0.32122782 0.23103021 0.32956272 0.10766815 -0.14208242 0.34552136
0.1801439 0.19606861 0.13680533 0.06936103 0.31806672 0.280961 0.17396167 -0.11924884
-0.31633526 0.21663457 0.2609971 0.038155172 -0.26590988 -0.11739686 0.3740602 0.23760942
-0.10302061 -0.106263876 -0.2603734 0.336049 0.4783501 0.25183538 0.22745001 0.11293674
0.29711464 0.45478424 0.39806142 0.4557281 0.22798963 -0.38426846 -0.16509242 -0.2536502
0.12470507 0.2800946 -0.10640752 -0.32647187 -0.009846204 -0.113930434 0.29943854 -0.21344446
0.10161232 0.14686146 -0.08478876 0.26194847 -0.18718316 -0.27518666 -0.07414695 -0.10051617
-0.12073881 -0.30317098 -0.3963878 -0.31789923 -0.3503997 -0.2749911 -0.20203765 -0.17863266
-0.11043199 -0.11105134 -0.13142514 0.4096717 0.41568863 0.051948875 0.05515704 0.3693407
0.29448467 0.20134835 0.5046026 0.5350203 0.29436374 -0.08165452 0.40532812 0.14236572
0.055814434 0.027945358 0.28740802 0.4963783 -0.036661968 -0.10622455 -0.17902863 0.4149922
0.31909895 -0.19537699 -0.23251243 -0.06213667 0.39768264 0.12991205 -0.3084753 -0.37131637
-0.21346532 0.34355474 0.048838783 -0.085200995 -0.11980317 0.0902661 0.101941615 0.46749416
0.5332779 0.5314383 0.63489115 0.30134663 0.39465728 0.5075543 0.4655872 0.31824422
0.2686716 0.031531963 -0.14309114 -0.3049237 -0.15203604 -0.22254094 -0.427431 -0.46043226
-0.38798356 -0.29753432 -0.39539364 -0.3002674 -0.4990991 -0.28442755 -0.16024582 -0.14987826
0.26241136 0.0483203 -0.50619906 -0.36994135 0.24532926 0.40202937 0.03688674 -0.47290072
-0.28298414 -0.18303217 0.56141925 0.60281104 -0.074521005 -0.4367856 -0.056688778 0.2641586
0.5435709 0.48290542 0.21981966 -0.3724484 -0.16649054 0.25684488 0.4532056 0.35084876
00000000: cbb5 d1be 60fa cabe 0e1e 46bc c5e6 043f
00000010: cd99 6d3e bf4f d9be 92b2 01bd c8f9 f63e
00000020: 0686 063f d29d 323e c53d 6bbe dcd3 633e
00000030: ed75 0b3f e633 a03e af58 a73d 7c65 1a3e
00000040: 73ff 7a3e 55a5 d93e f8c5 06be 3cf8 0bbe
00000050: 6a12 963e ff81 b03d 9439 903c 3c48 2dbe
00000060: 62fe 153e ac07 19be 71b1 86bd 386a 1f3c
00000070: 7d98 323d fcf1 aa3e b471 9fbe d48d 82be
00000080: 85e0 79be 54f7 633e 2f1a d73e cc23 abbd
00000090: c0e1 c3bd ac0f 90be 1bb2 5c3e a3de f73e
000000a0: 6775 aebe 599d 7ebe 13b0 4dbe f0bb 99bd
000000b0: 422d da3e 0b48 6abe fea7 23be aaef 79be
000000c0: 79bd a13c 73c1 823e f977 a43e 2f93 6c3e
000000d0: 72bc a83e 1e81 dc3d 0e7e 11be 2de8 b03e
000000e0: a477 383e 36c6 483e b216 0c3e 280d 8e3d
000000f0: a4d9 a23e 1fda 8f3e 0223 323e bc38 f4bd
00000100: b2f6 a1be 74d5 5d3e 69a1 853e 9948 1c3d
00000110: 5725 88be c46d f0bd d284 bf3e e24f 733e
00000120: 78fc d2bd e0a0 d9bd aa4f 85be 9d0e ac3e
00000130: 4eea f43e 91f0 803e a8e8 683e 614b e73d
00000140: 691f 983e 7bd9 e83e b5ce cb3e 3255 e93e
00000150: 1d76 693e d6be c4be fd0d 29be 70de 81be
00000160: 5f65 ff3d 8f68 8f3e 30ec d9bd 5227 a7be
00000170: f951 21bc 5c54 e9bd 0250 993e 2f91 5abe
00000180: 1f1a d03d da62 163e bba5 adbd 1c1e 863e
00000190: f1ac 3fbe 44e5 8cbe 5bda 97bd 6cdb cdbd
000001a0: e945 f7bd 3a39 9bbe 57f3 cabe b0c3 a2be
000001b0: 9767 b3be a2cb 8cbe f5e2 4ebe 7beb 36be
000001c0: 2b2a e2bd e36e e3bd 5094 06be 7dc0 d13e
000001d0: 24d5 d43e 58c8 543d 59ec 613d 391a bd3e
000001e0: b2c6 963e 432e 4e3e a32d 013f 17f7 083f
000001f0: d8b6 963e 7c3a a7bd 2b87 cf3e 52c8 113e
00000200: ad9d 643d aaed e43c 2527 933e 4c25 fe3e
00000210: dc2a 16bd 428c d9bd 4853 37be dc79 d43e
00000220: f060 a33e e810 48be bd17 6ebe 0583 7ebd
00000230: 0f9d cb3e aa07 053e 79f0 9dbe 2e1d bebe
00000240: a796 5abe 68e6 af3e 2d0b 483d dc7d aebd
00000250: 5d5b f5bd 6fdd b83d c4c6 d03d 655b ef3e
00000260: e784 083f 570c 083f 3a88 223f 1b4a 9a3e
00000270: 8510 ca3e 14ef 013f 7261 ee3e e8f0 a23e
00000280: 538f 893e a927 013d 7c86 12be f61e 9cbe
00000290: 56af 1bbe c6e1 63be 3cd8 dabe c7bd ebbe
000002a0: c8a5 c6be 6b56 98be 0971 cabe a6bc 99be
000002b0: eb89 ffbe 7da0 91be 7b17 24be b079 19be
000002c0: c85a 863e 82eb 453d 4396 01bf f468 bdbe
000002d0: 9837 7b3e cbd6 cd3e 8d16 173d 0b20 f2be
000002e0: 4ce3 90be c96c 3bbe 2cb9 0f3f d351 1a3f
000002f0: 789e 98bd 5da2 dfbe 7e32 68bd cc3f 873e
00000300: 7627 0b3f 613f f73e 6818 613e 8fb1 bebe
00000310: 7f7c 2abe 2c81 833e 900a e83e 73a2 b33e

conv1.bias f4 [8]
-0.042842727 0.18571627 0.016171534 -0.08942421 0.36163387 0.20746118 0.30093464 0.32035348
00000000: db7b 2fbd 682c 3e3e 2a7a 843c 0a24 b7bd
00000010: 1328 b93e b470 543e 1b14 9a3e 5f05 a43e

conv2.weight f4 [16, 8, 5, 5]
-0.08264719 -7.71579e-05 0.071337864 0.004987115 -0.07131312 -0.08692758 0.054530844 0.07248842
-0.010959257 -0.08845673 -0.018972548 0.09447966 0.07838412 -0.0577645 -0.11886661 0.048366047
0.027767768 -0.012466649 -0.0082173785 -0.0047881594 0.021985516 -0.024238847 -0.04570721 -0.00085758953
0.03818297 -0.10259884 0.093195796 0.0076349596 -0.030975189 -0.026012579 -0.0056084534 0.058941353
-0.0076459516 -0.037883203 0.021127999 0.05182929 0.07339935 -0.05950015 -0.026744805 0.0522385
-0.016364956 0.02571117 -0.042135783 -0.0032635338 0.025017375 -0.08710735 0.015222575 0.024300994
-0.017855458 -4.926098e-05 -0.02704385 -0.081946194 0.062982425 0.14398858 0.007541016 -0.03316262
-0.030565578 0.14447017 0.17960985 -0.0033761195 -0.075857945 -6.8325004e-05 0.11192568 0.072182484
-0.04047746 -0.028581563 0.04742915 0.08423807 0.026286468 -0.06845601 0.041713316 0.046465132
0.017557565 0.026542809 -0.022008345 0.013991788 0.016906805 0.038628057 -0.053237706 0.007821454
-0.045243256 0.0019488535 -0.01884526 -0.02286051 0.042860728 -0.01959753 -0.042916495 -0.03874782
-0.05476559 -0.03932572 -0.046891242 -0.02953909 -0.034423523 -0.06626123 -0.056416474 -0.035260417
-0.043604854 -0.031030647 -0.050854046 -0.01238736 -0.0054352563 -0.038883235 -0.063401006 -0.0033544865
0.03872024 -0.014974117 -0.01832859 -0.04948033 -0.03848669 -0.009363829 -0.041373186 -0.085575424
0.008847515 -0.04502193 -0.026602698 -0.0021177821 -0.025486736 0.01986544 0.029244903 -0.01314186
-0.028550455 0.023628218 0.005025907 0.037316393 0.0018180622 -0.029288953 -0.082995296 -0.026047831
0.089616634 -0.023191689 -0.042322565 -0.07337771 0.039893586 0.094558366 0.017549818 -0.09095132
-0.012563103 0.08322063 0.13437635 -0.032252964 -0.059140608 0.00016579808 0.054832567 0.03203499
-0.040570766 -0.026370434 0.027840028 0.023745172 0.031937875 -0.07155776 0.01163057 -0.06796657
-0.0991908 0.07418151 0.07945642 -0.03933824 -0.044426672 0.06148096 0.064680174 0.09102096
-0.060104486 0.034785103 0.026292857 0.052726377 -0.045891535 -0.09087578 -0.008829235 0.06483866
-0.035220135 -0.072786726 -0.062996835 -0.070670076 -0.0070340107 -0.024080286 -0.02910912 -0.10188315
-0.13746057 -0.034841828 0.023803283 -0.017559225 -0.04999386 -0.16597866 -0.08716412 -0.021063311
-0.07612295 -0.11412786 -0.11600277 -0.0062744147 -0.017539382 -0.06866875 -0.109477125 -0.082672365
0.015209413 -0.0099058105 -0.038895074 -0.07640777 -0.017619355 -0.021399409 0.013902528 -0.015397795
-0.0013277694 -0.011353237 -0.083862446 -0.083854266 0.08214205 -0.07980318 -0.043551616 -0.015755158
0.10919438 0.09771553 -0.024038974 0.11750969 -0.017393192 0.086744584 -0.050795253 -0.049607106
0.03073216 -0.02375137 0.040533766 -0.11433877 -0.037541743 0.014818382 0.053720787 0.05009943
-0.0711036 0.014795199 0.02920032 0.04044778 0.016156217 -0.026882507 0.0077322572 -0.03871645
0.111164376 0.020485807 -0.05867703 -0.016184699 -0.05980435 0.14912364 0.022131441 -0.064529166
-0.0113341445 -0.06919391 0.19984771 0.025092322 -0.04767546 -0.047977574 0.021044618 0.108171865
0.06626457 -0.015418073 0.052692216 0.022601467 -0.05020705 -0.00287878 0.021984885 0.025930954
00000000: ee42 a9bd d5cf a1b8 9619 923d f46a a33b
00000010: 9d0c 92bd 1607 b2bd bc5b 5f3d cf74 943d
00000020: 758e 33bc cd28 b5bd 516c 9bbc 8d7e c13d
00000030: da87 a03d 789a 6cbd 5670 f3bd 7a1b 463d
00000040: 3b79 e33c ea40 4cbc 2fa2 06bc fee5 9cbb
00000050: f81a b43c 8c90 c6bc 7c37 3bbd dccf 60ba
00000060: bf65 1c3d 571f d2bd 70dd be3d af2e fa3b
00000070: aebf fdbc 5518 d5bc 1ec7 b7bb 7d6c 713d
00000080: e48a fabb 6b2b 1bbd a014 ad3c f34a 543d
00000090: 6652 963d 6eb6 73bd ec17 dbbc 0af8 553d
000000a0: cd0f 86bc 3ba0 d23c 9296 2cbd 03e1 55bb
000000b0: 3df1 cc3c 5765 b2bd 1b68 793c e112 c73c
000000c0: 9c45 92bc 939d 4eb8 108b ddbc 68d3 a7bd
000000d0: eefc 803d be71 133e a11a f73b 87d5 07bd
000000e0: aa64 fabc fdef 133e a5eb 373e e341 5dbb
000000f0: 695b 9bbd b549 8fb8 4a39 e53d 69d4 933d
00000100: b1cb 25bd e223 eabc 1245 423d 0285 ac3d
00000110: b856 d73c aa32 8cbd 95db 2a3d 3952 3e3d
00000120: e2d4 8f3c 4e70 d93c d84a b4bc d03d 653c
00000130: 2480 8a3c 7438 1e3d c80f 5abd 8e25 003c
00000140: fe50 39bd ac70 ff3a 6061 9abc f745 bbbc
00000150: bb8e 2f3d 008b a0bc 35c9 2fbd 09b6 1ebd
00000160: e251 60bd 0214 21bd 0811 40bd f6fb f1bc
00000170: aeff 0cbd f8b3 87bd f614 67bd 3a6d 10bd
00000180: 019b 32bd fc33 febc 554c 50bd 5bf4 4abc
00000190: 3c1a b2bb 0744 1fbd 63d8 81bd f2d6 5bbb
000001a0: 1d99 1e3d 0056 75bc d725 96bc e3ab 4abd
000001b0: 38a4 1dbd bf6a 19bc ee76 29bd 2b42 afbd
000001c0: 2bf5 103c ea68 38bd e7ed d9bc 7dca 0abb
000001d0: 8fc9 d0bc d9bc a23c 0293 ef3c f550 57bc
000001e0: a5e2 e9bc f78f c13c 5db0 a43b 13d9 183d
000001f0: 0b4c ee3a 63ef efbc 70f9 a9bd 4362 d5bc
00000200: ed88 b73d 7ffc bdbc 6d5a 2dbd 0e47 96bd
00000210: 7567 233d d1a7 c13d a3c4 8f3c b044 babd
00000220: 79d5 4dbc 946f aa3d f499 093e af1b 04bd
00000230: 6c3d 72bd 15da 2d39 1d98 603d 1f37 033d
00000240: 882d 26bd cf06 d8bc c510 e43c 3c85 c23c
00000250: 4ad1 023d e08c 92bd 258e 3e3c 0f32 8bbd
00000260: 8c24 cbbd 7aec 973d 0cba a23d 2221 21bd
00000270: bef8 35bd 76d3 7b3d 0a77 843d 3269 ba3d
00000280: 1f30 76bd d37a 0e3d 1e64 d73c 9df7 573d
00000290: c3f8 3bbd 151d babd 7fa8 10bc 22ca 843d
000002a0: fd42 10bd 3511 95bd 7c04 81bd 79bb 90bd
000002b0: 8f7d e6bb 0544 c5bc 4076 eebc 1da8 d0bd
000002c0: 77c2 0cbe 4eb6 0ebd 1aff c23c 5dd8 8fbc
000002d0: 5dc6 4cbd 4ff6 29be 1a83 b2bd f78c acbc
000002e0: 59e6 9bbd debb e9bd dc92 edbd 9b99 cdbb
000002f0: c0ae 8fbc 34a2 8cbd 8b35 e0bd 2150 a9bd
00000300: e730 793c fb4b 22bc 7150 1fbd ad7b 9cbd
00000310: 7756 90bc d04d afbc 6ec7 633c 0847 7cbc
00000320: 8c08 aeba ed02 3abc 13c0 abbd c9bb abbd
00000330: 173a a83d da6f a3bd 2e63 32bd f610 81bc
00000340: 4ea1 df3d 141f c83d 62ed c4bc eca8 f03d
00000350: 2b7c 8ebc 25a7 b13d af0e 50bd d230 4bbd
00000360: 03c2 fb3c 3c92 c2bc bc06 263d 722a eabd
00000370: 5fc5 19bd cdc8 723c 540a 5c3d 0f35 4d3d
00000380: c49e 91bd 9067 723c 8235 ef3c 92ac 253d
00000390: 0b5a 843c b438 dcbc e05e fd3b 2495 1ebd
000003a0: 26aa e33d dad1 a73c 5357 70bd c695 84bc
000003b0: 68f5 74bd deb3 183e ff4c b53c de27 84bd
000003c0: d9b2 39bc 89b5 8dbd e1a4 4c3e 6a8e cd3c
000003d0: 5847 43bd 2284 44bd c365 ac3c 3689 dd3d
000003e0: b8b5 873d 169c 7cbc cbd3 573d b626 b93c
000003f0: e8a5 4dbd eaa9 3cbb a519 b43c 276d d43c

conv2.bias f4 [16]
-0.05566184 0.0039983625 -0.009913549 -0.043068524 -0.03806596 0.0016245194 0.03548887 -0.019226624
-0.016506437 0.036165234 0.032572776 0.029353194 -0.011120597 0.02208921 -0.04205946 0.0029971031
00000000: abfd 63bd b204 833b 706c 22bc 9f68 30bd
00000010: 0deb 1bbd d3ed d43a c75c 113d 2781 9dbc
00000020: 8238 87bc ff21 143d 086b 053d 1c76 f03c
00000030: 2a33 36bc 6ef4 b43c 8a46 2cbd 0c6b 443b

conv3.weight f4 [24, 16, 5, 5]
0.043289002 0.05084343 0.02438378 0.070194736 0.020648966 0.05763644 0.033565782 0.04395547
0.090188466 -0.020989617 0.024110515 -0.002762324 0.049530715 0.023770107 -0.006168649 0.00088128535
0.04416858 0.012091279 -0.029287646 -0.021457778 -0.021800205 -0.011606993 -0.03609473 -0.040126644
-0.01270751 0.08933626 0.06993824 -0.028542403 -0.012100042 -0.00046124053 -0.046733323 0.08179199
0.016953327 0.066018276 -0.01238099 -0.0102034155 0.15082632 -0.012278993 -0.00039644205 -0.032689203
-0.047748793 0.005016261 -0.023821604 -0.014767833 -0.0019981354 -0.026572393 -0.10622636 -0.031506836
-0.04237078 0.03249069 0.005924216 0.0008387304 -0.078569494 -0.06809269 0.035412166 -0.072494656
-0.09658888 -0.10078348 0.041771132 0.009724666 -0.022056067 0.055677164 0.03134197 0.005770055
-0.03481388 -0.042286392 -0.014895204 -0.0008306545 0.031958237 -0.0009578048 -0.055825498 -0.09479236
-0.04734173 0.0028071788 -0.0010967302 0.119213544 0.015080091 -0.12450809 -0.006481955 0.02425955
0.045841094 -0.016844418 0.06902856 0.14037436 0.008649228 -0.0028605142 -0.01630319 0.043102615
0.048026465 -0.02566449 -0.07772673 -0.08060416 0.032961436 0.015556326 -0.007090239 -0.0422716
-0.08225759 -0.09242656 -0.008961561 0.020270837 0.085134506 -0.0152708525 -0.03960288 -0.14804053
0.01730744 -0.0071232948 -0.044873253 0.04202246 0.018074518 0.052157637 0.009451901 0.16088805
0.05426439 -0.0054668235 -0.019977 -0.030602751 0.03422018 0.009536718 -0.052751403 -0.01980053
-0.06922643 -0.044536147 -0.056132477 -0.018797927 -0.03004389 0.032935206 -0.04406588 0.008998361
0.1158649 0.0010870807 0.07876802 -0.013600232 0.008769948 0.006828292 -0.062468577 0.042556986
0.0060825907 0.034750935 -0.017006317 -0.04165265 0.0093378145 -0.055121902 -0.023586653 -0.06983276
-0.050352294 -0.09400668 -0.032192584 -0.009913237 -0.00085038086 0.02346511 0.05207567 -0.010130432
-0.041032903 0.001646506 -0.054880895 0.0478039 -0.050843555 0.00032256794 0.0061589545 -0.053541195
0.04532539 0.038581792 -0.0074233017 -0.0031547844 -0.077020355 -0.06502314 -0.044742856 -0.04574854
-0.054501712 -0.062634595 0.005597128 -0.009749901 0.010544755 -0.0074575483 -0.020538379 0.03209358
0.0067219483 0.059630886 -0.0062269564 -0.023193656 0.00090019376 0.01110043 -0.017783308 -0.027000828
0.032571934 0.04541795 0.06738478 -0.03626449 0.00736617 -0.008437319 0.05323511 -0.002826737
-0.046568464 0.02950332 -0.018529005 -0.00039449712 -0.027451718 -0.0018501182 -0.0127722025 0.017871074
-0.036041558 -0.047168363 -0.046506062 0.0027352225 0.0384159 -0.016140696 -0.0044284654 0.052254133
-0.0072403313 -0.023655526 0.043597784 0.040062107 0.006355474 -0.028365385 -0.06085836 0.010851018
-0.046625692 -0.051744282 -0.053776566 -0.070103936 -0.033371948 0.01612206 -0.02646954 -0.06000495
-0.022535617 0.032510884 0.02759271 -0.04628481 -0.012780797 0.03703252 0.025381723 -0.008655542
0.055007976 0.010032872 0.0028329322 0.020966 -0.038814064 0.034471232 -0.06526966 -0.10882464
-0.074959196 -0.10690083 -0.06063378 -0.04767402 -0.043526698 -0.015431357 -0.052540977 -0.055863686
-0.017409418 0.04647178 0.033749774 0.01928451 0.046666037 0.05052497 0.025874509 0.03968335
00000000: cf4f 313d 3341 503d 7ec0 c73c 42c2 8f3d
00000010: 0528 a93c 3014 6c3d 467c 093d a70a 343d
00000020: bbb4 b83d 6bf2 abbc 6a83 c53c 1b08 35bb
00000030: b8e0 4a3d 87b9 c23c 6122 cabb 0f06 673a
00000040: 1dea 343d 801a 463c a5ec efbc 39c8 afbc
00000050: 5896 b2bc 422b 3ebc 11d8 13bd d65b 24bd
00000060: 2933 50bc eef5 b63d c83b 8f3d c2d1 e9bc
00000070: 413f 46bc a8d2 f1b9 716b 3fbd 8f82 a73d
00000080: b4e1 8a3c 9734 873d a3d9 4abc 3a2c 27bc
00000090: 3772 1a3e d42d 49bc 8dd9 cfb9 1de5 05bd
000000a0: 3d94 43bd 725f a43b 8625 c3bc c8f4 71bc
000000b0: 26f3 02bb 59ae d9bc 358d d9bd 500d 01bd
000000c0: fc8c 2dbd f514 053d ed1f c23b 3fde 5b3a
000000d0: 0be9 a0bd 2e74 8bbd 590c 113d 1478 94bd
000000e0: 64d0 c5bd 9267 cebd 3518 2b3d 3554 1f3c
000000f0: edae b4bc bd0d 643d 7060 003d bb12 bd3b
00000100: 0099 0ebd 7f34 2dbd 040b 74bc 48c0 59ba
00000110: a4e6 023d 3115 7bba 47a9 64bd 7f22 c2bd
00000120: 67e9 41bd a5f8 373b 29c0 8fba 3b26 f43d
00000130: 7c12 773c 19fe febd 9466 d4bb f7bb c63c
00000140: dfc3 3b3d 4efd 89bc d85e 8d3d 4cbe 0f3e
00000150: 7eb5 0d3c 7777 3bbb 448e 85bc 5e8c 303d
00000160: 66b7 443d 563e d2bc 312f 9fbd cb13 a5bd
00000170: 9202 073d f6df 7e3c 3c55 e8bb fc24 2dbd
00000180: ab76 a8bd 234a bdbd 83d3 12bc 070f a63c
00000190: 005b ae3d 9932 7abc a136 22bd f097 17be
000001a0: 55c8 8d3c 876a e9bb 04cd 37bd be1f 2c3d
000001b0: 0311 943c 3fa3 553d 25dc 1a3c d6bf 243e
000001c0: 5644 5e3d 0a23 b3bb cea6 a3bc 9fb2 fabc
000001d0: 762a 0c3d e53f 1c3c db11 58bd b934 a2bc
000001e0: 96c6 8dbd 896b 36bd 2beb 65bd 1cfe 99bc
000001f0: 9b1e f6bc 11e7 063d 6d7e 34bd dd6d 133c
00000200: 944a ed3d 607c 8e3a 2151 a13d 82d3 5ebc
00000210: d4af 0f3c ddbf df3b 0ddf 7fbd 3c50 2e3d
00000220: 7850 c73b ff56 0e3d d550 8bbc f89b 2abd
00000230: a2fd 183c 81c7 61bd cc38 c1bc 7a04 8fbd
00000240: 353e 4ebd 9386 c0bd 5fdc 03bd 216b 22bc
00000250: 18ec 5eba e739 c03c 4c4d 553d 1dfa 25bc
00000260: 1e12 28bd 93cf d73a caca 60bd 06ce 433d
00000270: 5541 50bd 561e a939 0ed1 c93b 034e 5bbd
00000280: 1ea7 393d f107 1e3d 2b3f f3bb 80c0 4ebb
00000290: d9bc 9dbd da2a 85bd 4944 37bd d262 3bbd
000002a0: 303d 5fbd 9146 80bd 1d68 b73b 0cbe 1fbc
000002b0: e8c3 2c3c 735e f4bb 1a40 a8bc 8f74 033d
000002c0: ca43 dc3b 843f 743d 7f0b ccbb 9f00 bebc
000002d0: fbfa 6b3a 94de 353c 4dae 91bc d730 ddbc
000002e0: 266a 053d 2c08 3a3d 0801 8a3d 138a 14bd
000002f0: ea5f f13b ae3c 0abc 0f0d 5a3d c740 39bb
00000300: 93be 3ebd f2b0 f13c 24ca 97bc 82d4 ceb9
00000310: 6de2 e0bc aa7f f2ba 8042 51bc 5c66 923c
00000320: 50a0 13bd 9d33 41bd 247d 3ebd 6b41 333b
00000330: fe59 1d3d 7e39 84bc a91c 91bb 6e08 563d
00000340: 4d40 edbb 3cc9 c1bc 9793 323d 2a18 243d
00000350: 9441 d03b 865e e8bc 9e46 79bd 78c8 313c
00000360: 95fa 3ebd d0f1 53bd d144 5cbd a792 8fbd
00000370: 06b1 08bd 6912 843c a6d6 d8bc c0c7 75bd
00000380: 9d9c b8bc 222a 053d 1b0a e23c 2495 3dbd
00000390: 8c66 51bc 69af 173d 55ed cf3c f9cf 0dbc
000003a0: 0b50 613d ea60 243c b7a8 393b e4c0 ab3c
000003b0: 7ffb 1ebd b531 0d3d 19ac 85bd 74df debd
000003c0: 3584 99bd d3ee dabd 205b 78bd d545 43bd
000003d0: 0d49 32bd cdd3 7cbc 3535 57bd 52d1 64bd
000003e0: 329e 8ebc 3159 3e3d 343d 0a3d 8cfa 9d3c
000003f0: e324 3f3d 45f3 4e3d c7f6 d33c 028b 223d

conv3.bias f4 [24]
-0.0039387546 0.010062287 0.012103692 0.013101303 0.0027379324 -0.008856084 -0.0016708461 0.0019388605
-0.015816076 -0.007416324 -0.0026169175 0.01558323 0.030549329 -0.00954345 -0.014119333 -0.011860542
-0.0038529367 -0.0052507096 -0.02117276 0.0052303243 -0.018738274 0.0028930402 0.02382377 -0.023575447
00000000: ab10 81bb 4adc 243c 904e 463c d9a6 563c
00000010: e26e 333b 1c19 11bc 4b00 dbba 5d21 fe3a
00000020: b790 81bc a304 f3bb 9780 2bbb ce50 7f3c
00000030: 9642 fa3c 215c 1cbc c654 67bc b852 42bc
00000040: 8d81 7cbb 250e acbb 7f72 adbc 2463 ab3b
00000050: 0281 99bc 2999 3d3b 112a c33c 4c21 c1bc

fc4.weight f4 [16, 24]
0.14398123 0.16061214 -0.049764916 -0.18404299 0.2594919 -0.24469492 -0.17374295 0.31717443
0.4384651 -0.26815462 0.22059822 0.0067356285 0.19821444 0.13589041 -0.17460677 0.17833261
0.1947697 -0.214803 -0.05984 0.3261072 -0.24839994 -0.072031215 0.1901697 0.14723566
0.054602552 -0.039290737 0.073948346 0.28179935 0.13565446 -0.15365137 -0.04342591 0.2254841
0.08925968 -0.2959637 0.12211968 0.09046531 -0.093942404 -0.07784455 -0.023587475 -0.15668319
0.20125633 -0.09842431 0.25036848 -0.059536718 0.24393992 0.28119007 -0.18928966 0.18054569
-0.097900346 -0.2781613 0.3090316 -0.17992195 0.26666343 -0.17717226 -0.21103862 0.031935077
-0.13399296 0.2354831 0.24189602 0.1357786 -0.004156142 -0.07473121 0.49162972 -0.11764756
0.15692139 0.24344978 -0.13333832 -0.12245519 0.054442555 -0.005606768 0.048756085 -0.18589273
0.16700214 0.18340749 -0.0665588 0.0558202 0.033254333 -0.079852976 -0.17613006 -0.10273368
-0.07190208 0.043610565 0.06518573 0.20401765 -0.17024936 0.16059123 -0.06733628 0.27655545
0.1465271 -0.25997642 0.14728254 0.06717971 -0.0058540683 0.19394472 -0.11823495 0.2777571
-0.018782657 -0.25907272 -0.15167935 0.2545428 -0.21488577 0.02084749 0.23117073 -0.1065642
-0.011040798 -0.33350712 -0.13419898 0.15666275 0.18273027 -0.42249185 0.27981645 0.11934038
0.41889182 0.20421447 -0.033371028 0.17152503 0.015246346 -0.29745835 0.04622578 -0.23338558
-0.094912484 0.18739773 -0.09331328 -0.01812391 -0.05064597 0.11756364 -0.40522134 0.111352496
0.20229389 0.088300586 0.08433973 -0.03707053 0.07356247 -0.028877672 0.28984672 0.07290827
0.23021415 0.025538854 -0.3663287 0.21036434 0.29991806 -0.2751789 0.0028111858 0.18419245
0.21279469 -0.20381273 0.31694734 -0.20146155 0.0801282 0.020236665 0.0072346516 -0.21548456
0.07161816 0.3058349 0.2798457 -0.21961972 0.36084723 0.25285566 -0.12821475 0.008553102
0.033742387 -0.039008353 -0.1785153 0.03449176 -0.14688207 -0.15834124 0.100497335 -0.09546285
0.108023904 0.16763672 -0.1904559 0.1597125 -0.20914938 0.10023899 0.18438484 -0.34767812
-0.1158601 0.0068363743 -0.08285134 0.14071925 -0.03633172 0.19369653 -0.007197446 0.22831263
0.12617321 -0.0071882424 -0.00053946977 -0.062586926 0.2422747 0.082766615 -0.13162275 0.24027608
-0.33863965 0.08074385 -0.17032574 0.044365034 -0.024100399 0.19000284 0.28676495 -0.057488926
-0.1985612 0.21258688 -0.285573 0.44483423 -0.13247308 0.07307933 0.24503656 0.26434964
0.046227966 0.25950876 -0.04272417 -0.05769821 -0.28477186 -0.06996099 0.21015781 -0.28418612
0.05534622 -0.16688077 0.108128816 0.08482389 -0.023502355 0.15694806 0.3138308 -0.21563151
0.17278981 -0.12583324 0.19412448 -0.18214735 0.122483104 0.067385286 -0.10404109 -0.13208723
-0.33410054 0.3683009 0.15383844 -0.030181944 0.3311354 0.08557004 0.0091787325 -0.024698595
-0.053843837 0.17182112 -0.04786092 0.22917542 -0.0655024 0.16432467 0.21807547 -0.13251106
-0.15674879 -0.232195 -0.117552966 0.04090235 0.00925637 -0.22085328 0.10668127 0.02226138
00000000: d16f 133e 8277 243e 4cd6 4bbd c475 3cbe
00000010: 1fdc 843e 4e91 7abe ace9 31be b064 a23e
00000020: 7f7e e03e 904b 89be 80e4 613e 8cb6 dc3b
00000030: baf8 4a3e db26 0b3e 1ecc 32be d39c 363e
00000040: b571 473e 51f5 5bbe ca1a 75bd 86f7 a63e
00000050: 8e5c 7ebe 1a85 93bd d9bb 423e f2c4 163e
00000060: eda6 5f3d 53ef 20bd 3b72 973d 0148 903e
00000070: 01e9 0a3e c956 1dbe 5edf 31bd 4ee5 663e
00000080: c7cd b63d 8e88 97be e219 fa3d e045 b93d
00000090: e064 c0bd f76c 9fbd 853a c1bc 8f71 20be
000000a0: 2416 4e3e af92 c9bd 4c30 803e c6dc 73bd
000000b0: 63cb 793e 25f8 8f3e 26d5 41be f8e0 383e
000000c0: fa7f c8bd 286b 8ebe 6439 9e3e 763d 38be
000000d0: 1c88 883e a56c 35be 821a 58be 5bce 023d
000000e0: 7335 09be 7b22 713e 97b3 773e 8c09 0b3e
000000f0: 3f30 88bb ad0c 99bd e4b6 fb3e 34f1 f0bd
00000100: 00b0 203e e64a 793e d789 08be c9c9 fabd
00000110: 28ff 5e3d fbb8 b7bb 76b4 473d aa5a 3ebe
00000120: 9c02 2b3e 2ccf 3b3e fb4f 88bd b9a3 643d
00000130: b235 083d f589 a3bd 705b 34be 0966 d2bd
00000140: 6641 93bd fea0 323d 1980 853d 01ea 503e
00000150: d955 2ebe 0772 243e 9be7 89bd ad98 8d3e
00000160: 330b 163e a11b 85be 3cd1 163e 8495 893d
00000170: 7cd3 bfbb 7299 463e 2a25 f2bd 2e36 8e3e
00000180: 16de 99bc 2ea5 84be d551 1bbe 6f53 823e
00000190: 040b 5cbe 5bc8 aa3c 05b8 6c3e 553e dabd
000001a0: 77e4 34bc 72c1 aabe 756b 09be 336c 203e
000001b0: a51d 3b3e da50 d8be 1a44 8f3e bb68 f43d
000001c0: fd78 d63e 991d 513e 0fb0 08bd 42a4 2f3e
000001d0: cfcb 793c 764c 98be 3e57 3d3d a1fc 6ebe
000001e0: 7a61 c2bd 31e5 3f3e 081b bfbd 9878 94bc
000001f0: 2672 4fbd 35c5 f03d 2c79 cfbe c70c e43d
00000200: 2126 4f3e f0d6 b43d 4fba ac3d 45d7 17bd
00000210: eca7 963d de90 ecbc ca66 943e ee50 953d
00000220: 42bd 6b3e dc36 d13c 6f8f bbbe c069 573e
00000230: dc8e 993e 40e4 8cbe df3b 383b f29c 3c3e
00000240: dae6 593e 49b4 50be ec46 a23e f04b 4ebe
00000250: 411a a43d 5dc7 a53c a810 ed3b fca7 5cbe
00000260: 8bac 923d 6496 9c3e f047 8f3e fee3 60be
00000270: f8c0 b83e 4c76 813e ba4a 03be 4f22 0c3c
00000280: 7535 0a3d 39c7 1fbd b7cc 36be 3b47 0d3d
00000290: 4168 16be 3524 22be 8cd1 cd3d 0782 c3bd
000002a0: a33b dd3d f6a8 2b3e df06 43be ac8b 233e
000002b0: 412b 56be 194a cd3d 61cf 3c3e de02 b2be
000002c0: 0f48 edbd aa03 e03b f7ad a9bd b518 103e
000002d0: 92d0 14bd 6258 463e 8ed8 ebbb c9ca 693e
000002e0: 8d33 013e 598b ebbb 346b 0dba 932d 80bd
000002f0: dc16 783e 8b81 a93d 1dc8 06be ef0a 763e
00000300: 2d62 adbe 085d a53d df69 2ebe 1cb8 353d
00000310: 336e c5bc 1b90 423e dbd2 923e 8279 6bbd
00000320: a153 4bbe 60b0 593e a036 92be 50c1 e33e
00000330: 06a7 07be 9eaa 953d ddea 7a3e d658 873e
00000340: 8959 3d3d 55de 843e 8aff 2ebd f554 6cbd
00000350: 9ecd 91be b547 8fbd 9c33 573e d880 91be
00000360: b8b2 623d cbe2 2abe a472 dd3d 26b8 ad3d
00000370: 0388 c0bc feb6 203e 6eae a03e 82ce 5cbe
00000380: d0ef 303e 6eda 00be 91c8 463e d684 3abe
00000390: 6cd8 fa3d 4c01 8a3d 7f13 d5bd e041 07be
000003a0: 3a0f abbe f091 bc3e d387 1d3e 2040 f7bc
000003b0: 948a a93e 583f af3d 6562 163c b554 cabc
000003c0: 5b8b 5cbd e0f1 2f3e d009 44bd f6ac 6a3e
000003d0: 1f26 86bd ba44 283e 2d4f 5f3e fbb0 07be
000003e0: c182 20be 87c4 6dbe 9cbf f0bd 3989 273d
000003f0: 08a8 173c 5d27 62be b67b da3d 7f5d b63c

fc4.bias f4 [16]
0.10666878 -0.12186549 -0.050181966 0.01654365 -0.00068693445 0.07837236 -0.05236563 0.08804671
0.028738 -0.02162802 -0.010661242 0.08714579 -0.109307006 0.0028665876 0.09193233 0.08359962
00000000: 2975 da3d 9d94 f9bd 9b8b 4dbd 8c86 873c
00000010: 6413 34ba b081 a03d 587d 56bd d551 b43d
00000020: f46b eb3c 3f2d b1bc 7dac 2ebc 7e79 b23d
00000030: 5adc dfbd 5cdd 3b3b 0447 bc3d 4736 ab3d

fc5.weight f4 [10, 16]
-0.16062857 0.26860973 0.39099473 -0.16951486 -0.12551266 -0.05685353 -0.10231804 -0.12279941
-0.21728346 0.49397054 -0.2634801 -0.0029211773 -0.44694975 0.3429984 -0.010325016 0.2385449
0.36468887 0.42444015 -0.13140735 0.19196151 -0.100004196 -0.5803501 -0.30449417 -0.15979631
0.15225749 -0.22520222 0.13766634 0.2707232 0.31069505 -0.21707258 0.0046218648 -0.012014602
0.063124634 0.06556326 0.24813055 -0.26185587 0.08812865 0.44216517 -0.2225487 -0.2705657
-0.1587266 -0.16239336 -0.15902092 -0.070201755 0.16917013 -0.49826428 -0.029632902 0.74254835
-0.4067702 -0.16209874 -0.15130289 -0.141591 0.6193704 -0.17926756 -0.14806502 0.26048765
0.5822092 0.09188351 0.17205974 -0.2492242 -0.17554294 -0.17638168 0.083218865 0.18892197
0.6847203 -0.26738763 -0.51560605 0.3541895 -0.26495805 0.30226314 0.1890049 0.11777201
-0.17041141 -0.18504831 -0.1989006 0.037761383 -0.3338771 0.059665106 0.016983194 -0.16938604
-0.15304746 -0.07117535 -0.468648 -0.13050035 -0.2118349 -0.12857556 -0.06334246 0.09969428
-0.08906637 0.4424203 0.20431943 -0.22744241 0.56911165 0.3231527 0.32724604 -0.235884
0.023707233 -0.28041247 0.2595574 -0.111560725 -0.2300266 -0.4511928 0.70532006 -0.23352888
-0.16038875 0.18963963 -0.1904911 -0.35844845 0.08296913 0.0007032018 -0.058041424 0.24778871
-0.14705095 0.33554897 -0.17379512 0.33497944 0.18196437 0.20003232 -0.08081221 0.4609164
-0.44556168 -0.042973187 0.33142638 0.29221785 -0.17079641 -0.3811613 -0.3266378 -0.10854391
0.077554986 -0.12598675 0.36215767 -0.19454966 0.48463568 0.25340262 0.10829922 -0.33572224
0.21092682 -0.26073214 0.10376082 -0.19252719 0.2456786 0.38876367 -0.43607047 -0.5175315
-0.3791731 -0.15634298 0.22079496 0.25305417 -0.4432746 0.138083 -0.050617255 0.20711556
0.40097544 -0.3001567 -0.013253352 0.48441306 -0.25000405 0.15233776 0.43294656 -0.3263237
00000000: d17b 24be 3787 893e 7630 c83e 4e95 2dbe
00000010: 6486 00be 3fdf 68bd 1f8c d1bd 427e fbbd
00000020: 8e7f 5ebe b5e9 fc3e dde6 86be 3971 3fbb
00000030: 99d6 e4be 7c9d af3e 422a 29bc 1d45 743e
00000040: 80b8 ba3e 3850 d93e a68f 06be 8f91 443e
00000050: 00cf ccbd d391 14bf a9e6 9bbe a5a1 23be
00000060: 63e9 1b3e 699b 66be 68f8 0c3e 3b9c 8a3e
00000070: 6c13 9f3e 4648 5ebe 0373 973b e5d8 44bc
00000080: 7d47 813d 0846 863d ef15 7e3e f911 86be
00000090: cb7c b43d 7963 e23e cee3 63be 9687 8abe
000000a0: 3a89 22be 724a 26be 61d6 22be f0c5 8fbd
000000b0: ef3a 2d3e 7f1c ffbe b3c0 f2bc a617 3e3f
000000c0: 2f44 d0be 36fd 25be 25ef 1abe 3bfd 10be
000000d0: 0f8f 1e3f ea91 37be 5b9e 17be a35e 853e
000000e0: aa0b 153f 6c2d bc3d 6e30 303e a134 7fbe
000000f0: 87c1 33be 669d 34be a76e aa3d c374 413e
00000100: d449 2f3f 08e7 88be c2fe 03bf 5358 b53e
00000110: 95a8 87be 3cc2 9a3e 808a 413e 7432 f13d
00000120: 5480 2ebe 4e7d 3dbe 99ac 4bbe aeab 1a3d
00000130: f0f1 aabe 6663 743d 5720 8b3c 8973 2dbe
00000140: 79b8 1cbe 62c4 91bd a1f2 efbe e2a1 05be
00000150: 3feb 58be 50a9 03be b1b9 81bd 842c cc3d
00000160: 6e68 b6bd ea84 e23e 1d39 513e aae6 68be
00000170: 4db1 113f 4574 a53e cb8c a73e 938b 71be
00000180: ac35 c23c 3992 8fbe b5e4 843e f379 e4bd
00000190: 188c 6bbe be02 e7be db8f 343f 3222 6fbe
000001a0: f33c 24be e430 423e 1910 43be 8e86 b7be
000001b0: b8eb a93d 1357 383a d8bc 6dbd 53bc 7d3e
000001c0: 8694 16be 13cd ab3e 59f7 31be 6d82 ab3e
000001d0: de54 3a3e 46d5 4c3e df80 a5bd 3cfd eb3e
000001e0: a920 e4be a704 30bd b8b0 a93e 949d 953e
000001f0: 41e5 2ebe 9327 c3be 123d a7be 454c debd
00000200: 26d5 9e3d ac02 01be bb6c b93e 0738 47be
00000210: 2b22 f83e fdbd 813e fbcb dd3d c9e3 abbe
00000220: 33fd 573e af7e 85be 8e80 d43d d925 45be
00000230: 2c93 7b3e 080c c73e a144 dfbe f27c 04bf
00000240: fa22 c2be 6018 20be 1318 623e 5190 813e
00000250: e3f4 e2be a165 0d3e 0a54 4fbd 1a16 543e
00000260: a74c cd3e 24ae 99be 9624 59bc fd04 f83e
00000270: 8800 80be 6efe 1b3e 2cab dd3e e613 a7be

fc5.bias f4 [10]
-0.007804658 0.047789354 -0.0049344576 -0.014244094 -0.02815998 0.010500963 -0.017852657 -0.027315842
0.048427608 -0.0036282686
00000000: 37be ffbb c5be 433d 3bb1 a1bb 0f60 69bc
00000010: c2af e6bc 3b0c 2c3c bc3f 92bc 79c5 dfbc
00000020: 075c 463d 3fc8 6dbb
